Final_model.pth (torch, 32176 bytes, 3 tensors)

Linear_1.weight f4 [29, 258]
-0.0 -0.15050676 -0.09229701 -0.0 0.12522426 -0.0 0.0 0.06034016
0.02233877 0.12523997 -0.0 -0.0 -0.06772118 -0.046096027 -0.0 0.00492149
0.09372712 -0.0 0.0 -0.0 0.0 0.0 -0.0 -0.0
-0.0 0.0 -0.072126485 -0.056838017 0.0 0.0 -0.008294806 -0.12553759
-0.01619241 -0.048695058 0.0 0.16018638 0.10716604 0.0 0.15662023 0.07139916
0.07506043 0.0 0.0019531157 -0.11927234 0.0 0.06343563 0.0 0.01849686
-0.08232406 -0.002869437 0.0 0.0 0.0 0.010666649 0.0 0.009580307
0.0 -0.07264374 0.0 -0.07920092 -0.0 -0.0 0.0 0.0
0.109606616 0.0 -0.0 0.06073115 -0.10522717 0.0 0.0 -0.0
0.0 -0.0 0.0 0.0 0.08653887 -0.0 0.0 -0.0365003
0.167761 -0.10524112 0.0 0.0 0.0 -0.0 0.047447596 -0.0
0.0 0.050884265 0.0 0.0 -0.0 -0.0 0.0 -0.0
-0.0 -0.0 -0.0 0.0 -0.1152899 -0.0 -0.0 -0.0
0.02193383 0.0 0.05506063 -0.0 0.10192632 -0.106616296 -0.0 0.026316594
0.13571556 -0.03126899 -0.0024093005 0.0 0.0 0.0 0.07796275 0.07682758
-0.03167253 -0.0 -0.0 0.0 -0.06224643 -0.06396128 -0.0 0.0
0.115501806 0.0 -0.0 0.08968447 0.0 0.045436144 0.0 0.014508015
-0.047965255 0.059924647 -0.0 -0.0 -0.021291766 0.0 0.0 0.0
0.0 0.0 0.0 0.00904686 0.02717661 0.086600356 -0.0 -0.0053667673
0.0 -0.0 -0.042160865 -0.0055660997 0.0621496 0.0 0.11897744 -0.0
0.123274215 0.104249604 -0.03559403 -0.0 -0.111925155 -0.0 0.0 0.0
0.0 -0.0 0.0 0.0 0.0 -0.018173873 -0.0 -0.025855903
-0.0 -0.108025186 0.0 0.0 -0.0 -0.0 0.18454713 -0.0
-0.0 -0.0 0.019251341 -0.0 -0.08984423 -0.0 -0.0 -0.016852846
0.0 0.0 0.0 0.0 0.0 0.0 -0.0 0.0
-0.0051670414 0.0 0.0 0.0 0.13648506 0.010436188 0.0024631394 0.0
0.12125885 -0.0 0.0 0.0 0.0 -0.1023787 -0.08412708 0.12707624
-0.0 -0.08217753 -0.0 0.0 0.0 0.0 0.0 0.0
0.09859623 0.0 -0.0 -0.15412551 0.0 0.0 0.0070133856 0.044939067
0.14197041 0.0 0.1626338 -0.0 -0.0 -0.0 -0.0 0.0
0.16908146 -0.0 -0.0 0.0 -0.0 0.0 -0.0 0.016278014
0.06178144 -0.079913326 0.20249589 0.1313197 0.0 -0.0 0.0 -0.0
00000000: 0000 0080 721e 1abe 3706 bdbd 0000 0080
00000010: ca3a 003e 0000 0080 0000 0000 3e27 773d
00000020: ccff b63c e83e 003e 0000 0080 0000 0080
00000030: 67b1 8abd 30cf 3cbd 0000 0080 7344 a13b
00000040: 01f4 bf3d 0000 0080 0000 0000 0000 0080
00000050: 0000 0000 0000 0000 0000 0080 0000 0080
00000060: 0000 0080 0000 0000 0db7 93bd fbce 68bd
00000070: 0000 0000 0000 0000 f0e6 07bc ed8c 00be
00000080: f2a5 84bc 7874 47bd 0000 0000 e607 243e
00000090: de79 db3d 0000 0000 0e61 203e b939 923d
000000a0: 48b9 993d 0000 0000 b0ff ff3a 0e45 f4bd
000000b0: 0000 0000 8aea 813d 0000 0000 ba86 973c
000000c0: 8499 a8bd 2a0d 3cbb 0000 0000 0000 0000
000000d0: 0000 0000 2bc3 2e3c 0000 0000 b8f6 1c3c
000000e0: 0000 0000 3ec6 94bd 0000 0000 1834 a2bd
000000f0: 0000 0080 0000 0080 0000 0000 0000 0000
00000100: 6f79 e03d 0000 0000 0000 0080 3ac1 783d
00000110: 5881 d7bd 0000 0000 0000 0000 0000 0080
00000120: 0000 0000 0000 0080 0000 0000 0000 0000
00000130: 4b3b b13d 0000 0080 0000 0000 5781 15bd
00000140: 8ac9 2b3e a888 d7bd 0000 0000 0000 0000
00000150: 0000 0000 0000 0080 6958 423d 0000 0080
00000160: 0000 0000 056c 503d 0000 0000 0000 0000
00000170: 0000 0080 0000 0080 0000 0000 0000 0080
00000180: 0000 0080 0000 0080 0000 0080 0000 0000
00000190: 1c1d ecbd 0000 0080 0000 0080 0000 0080
000001a0: 93ae b33c 0000 0000 4187 613d 0000 0080
000001b0: bfbe d03d a559 dabd 0000 0080 e695 d73c
000001c0: 05f9 0a3e ea13 00bd 5be5 1dbb 0000 0000
000001d0: 0000 0000 0000 0000 efaa 9f3d c757 9d3d
000001e0: 0ebb 01bd 0000 0080 0000 0080 0000 0000
000001f0: 1df6 7ebd 22fe 82bd 0000 0080 0000 0000
00000200: 368c ec3d 0000 0000 0000 0080 7eac b73d
00000210: 0000 0000 401b 3a3d 0000 0000 06b3 6d3c
00000220: 3777 44bd 8c73 753d 0000 0080 0000 0080
00000230: 126c aebc 0000 0000 0000 0000 0000 0000
00000240: 0000 0000 0000 0000 0000 0000 4839 143c
00000250: 7ba1 de3c 875b b13d 0000 0080 b5db afbb
00000260: 0000 0000 0000 0080 dfb0 2cbd d463 b6bb
00000270: 9490 7e3d 0000 0000 72aa f33d 0000 0080
00000280: 3177 fc3d d180 d53d 0ccb 11bd 0000 0080
00000290: 0439 e5bd 0000 0080 0000 0000 0000 0000
000002a0: 0000 0000 0000 0080 0000 0000 0000 0000
000002b0: 0000 0000 60e1 94bc 0000 0080 c2cf d3bc
000002c0: 0000 0080 4f3c ddbd 0000 0000 0000 0000
000002d0: 0000 0080 0000 0080 ecf9 3c3e 0000 0080
000002e0: 0000 0080 0000 0080 fdb4 9d3c 0000 0080
000002f0: 4000 b8bd 0000 0080 0000 0080 fb0e 8abc
00000300: 0000 0000 0000 0000 0000 0000 0000 0000
00000310: 0000 0000 0000 0000 0000 0080 0000 0000
00000320: 4950 a9bb 0000 0000 0000 0000 0000 0000
00000330: bdc2 0b3e 8cfc 2a3c 9f6c 213b 0000 0000
00000340: 8f56 f83d 0000 0080 0000 0000 0000 0000
00000350: 0000 0000 edab d1bd d24a acbd 4620 023e
00000360: 0000 0080 b14c a8bd 0000 0080 0000 0000
00000370: 0000 0000 0000 0000 0000 0000 0000 0000
00000380: d2ec c93d 0000 0000 0000 0080 14d3 1dbe
00000390: 0000 0000 0000 0000 8bd0 e53b 0712 383d
000003a0: b160 113e 0000 0000 7a89 263e 0000 0080
000003b0: 0000 0080 0000 0080 0000 0080 0000 0000
000003c0: b123 2d3e 0000 0080 0000 0080 0000 0000
000003d0: 0000 0080 0000 0000 0000 0080 7859 853c
000003e0: 890e 7d3d 99a9 a3bd 155b 4f3e ac78 063e
000003f0: 0000 0000 0000 0080 0000 0000 0000 0080

Linear_1.bias f4 [29]
0.06469388 -0.03463262 -0.07280613 0.113370076 0.040090665 0.093514286 0.0014034729 0.15127677
-0.14565662 -0.06844929 0.27503034 0.08739165 0.16129112 -0.15608534 -0.0060879476 0.1834732
-0.011150419 0.13881901 -0.026005179 0.053665753 -0.13213477 -0.13840793 0.112935744 0.18812104
0.03188043 0.012568692 -0.002548004 0.07952398 0.056153126
00000000: 3a7e 843d efda 0dbd 611b 95bd 922e e83d
00000010: 1c36 243d 6b84 bf3d bcf4 b73a 4ce8 1a3e
00000020: 0227 15be 242f 8cbd c7d0 8c3e 65fa b23d
00000030: 8029 253e d6d4 1fbe 687d c7bb 66e0 3b3e
00000040: 3fb0 36bc 9226 0e3e d008 d5bc 9fd0 5b3d
00000050: 564e 07be cfba 0dbe db4a e73d cda2 403e
00000060: 0e95 023d eaec 4d3c 6afc 26bb 78dd a23d
00000070: d200 663d

Linear_2.weight f4 [1, 29]
0.4846584 -0.39818645 -0.30783162 0.14817151 0.33275184 -0.15624583 -0.19116999 0.31242692
-0.36571604 -0.09447908 0.29189438 0.109257706 0.25852782 -0.10387369 0.22850655 0.14764789
0.08933169 0.20994888 -0.18041049 -0.33613962 -0.315856 -0.21951947 0.071346596 0.35142857
0.23564324 0.28841323 -0.09774565 -0.034437407 -0.055250872
00000000: 2525 f83e 18df cbbe 1b9c 9dbe 46ba 173e
00000010: 735e aa3e e8fe 1fbe 11c2 43be 6cf6 9f3e
00000020: 223f bbbe 3f7e c1bd 2e73 953e 81c2 df3d
00000030: c25d 843e bbbb d4bd 9ffd 693e 0231 173e
00000040: 88f3 b63d d7fc 563e 87bd 38be 7e1a acbe
00000050: e1b7 a1be b6c9 60be 2a1e 923d 72ee b33e
00000060: 764c 713e e6aa 933e df2e c8bd 3d0e 0dbd
00000070: bd4e 62bd
